You are using the default legacy behaviour of the <class 'transformers.models.t5.tokenization_t5.T5Tokenizer'>. This is expected, and simply means that the `legacy` (previous) behavior will be used so nothing changes for you. If you want to use the new behaviour, set `legacy=False`. This should only be set if you understand what it means, and thoroughly read the reason why this was added as explained in https://github.com/huggingface/transformers/pull/24565
using taylor
RDT_taylor_img_p(
  (t_embedder): TimestepEmbedder(
    (mlp): Sequential(
      (0): Linear(in_features=256, out_features=2048, bias=True)
      (1): SiLU()
      (2): Linear(in_features=2048, out_features=2048, bias=True)
    )
  )
  (freq_embedder): TimestepEmbedder(
    (mlp): Sequential(
      (0): Linear(in_features=256, out_features=2048, bias=True)
      (1): SiLU()
      (2): Linear(in_features=2048, out_features=2048, bias=True)
    )
  )
  (blocks): ModuleList(
    (0-27): 28 x RDTBlock_taylor_img_p(
      (norm1): RmsNorm()
      (attn): TaylorAttention(
        (qkv): Linear(in_features=2048, out_features=6144, bias=True)
        (q_norm): RmsNorm()
        (k_norm): RmsNorm()
        (attn_drop): Dropout(p=0.0, inplace=False)
        (proj): Linear(in_features=2048, out_features=2048, bias=True)
        (proj_drop): Dropout(p=0.0, inplace=False)
      )
      (cross_attn): TaylorCrossAttention(
        (q): Linear(in_features=2048, out_features=2048, bias=True)
        (kv): Linear(in_features=2048, out_features=4096, bias=True)
        (q_norm): RmsNorm()
        (k_norm): RmsNorm()
        (attn_drop): Dropout(p=0, inplace=False)
        (proj): Linear(in_features=2048, out_features=2048, bias=True)
        (proj_drop): Dropout(p=0, inplace=False)
      )
      (norm2): RmsNorm()
      (ffn): WrappedTaylorMlp(
        (fc1): Linear(in_features=2048, out_features=2048, bias=True)
        (act): GELU(approximate='tanh')
        (fc2): Linear(in_features=2048, out_features=2048, bias=True)
      )
      (norm3): RmsNorm()
    )
  )
  (final_layer): FinalLayer(
    (norm_final): RmsNorm()
    (ffn_final): Mlp(
      (fc1): Linear(in_features=2048, out_features=2048, bias=True)
      (act): GELU(approximate='tanh')
      (drop1): Dropout(p=0, inplace=False)
      (norm): Identity()
      (fc2): Linear(in_features=2048, out_features=128, bias=True)
      (drop2): Dropout(p=0, inplace=False)
    )
  )
)
Diffusion params: 1.228320e+09
Loading weights from /root/autodl-tmp/ckpt/rdt/maniskill-model/rdt/mp_rank_00_model_states.pt
test inter text encode time
0
policy.encode_instruction GPU time: 158.550 ms
1
policy.encode_instruction GPU time: 17.572 ms
2
policy.encode_instruction GPU time: 17.150 ms
3
…
